created on:	30.04.2020-18:35:40
implemented by:	Philipp Neuhuber
relative error:	5.341%

Net_reg(
  (seq): Sequential(
    (lin0): Linear(in_features=4, out_features=21, bias=True)
    (rel0): PReLU(num_parameters=1)
    (lin1): Linear(in_features=21, out_features=43, bias=True)
    (rel1): PReLU(num_parameters=1)
    (lin2): Linear(in_features=43, out_features=64, bias=True)
    (rel2): PReLU(num_parameters=1)
    (lin3): Linear(in_features=64, out_features=85, bias=True)
    (rel3): PReLU(num_parameters=1)
    (lin4): Linear(in_features=85, out_features=107, bias=True)
    (rel4): PReLU(num_parameters=1)
    (lin5): Linear(in_features=107, out_features=128, bias=True)
    (rel5): PReLU(num_parameters=1)
    (lin6): Linear(in_features=128, out_features=107, bias=True)
    (rel6): PReLU(num_parameters=1)
    (lin7): Linear(in_features=107, out_features=85, bias=True)
    (rel7): PReLU(num_parameters=1)
    (lin8): Linear(in_features=85, out_features=64, bias=True)
    (rel8): PReLU(num_parameters=1)
    (lin9): Linear(in_features=64, out_features=43, bias=True)
    (rel9): PReLU(num_parameters=1)
    (lin10): Linear(in_features=43, out_features=21, bias=True)
    (rel10): PReLU(num_parameters=1)
    (lin11): Linear(in_features=21, out_features=1, bias=True)
  )
)

hyperParameters:
---
optimizer: Adam
lossFunction: MSE
batchSize: 16
activationFunction: rel
epochNum: 80
learnRate: 0.0001
layer: 12
nodes: 128
shape: trap
rescaleMethod: standardScore
---