created on:	30.04.2020-14:55:49
implemented by:	Philipp Neuhuber
relative error:	6.455%

Net_cla(
  (seq): Sequential(
    (lin0): Linear(in_features=4, out_features=64, bias=True)
    (prel0): PReLU(num_parameters=1)
    (lin1): Linear(in_features=64, out_features=64, bias=True)
    (prel1): PReLU(num_parameters=1)
    (lin2): Linear(in_features=64, out_features=64, bias=True)
    (prel2): PReLU(num_parameters=1)
    (lin3): Linear(in_features=64, out_features=64, bias=True)
    (prel3): PReLU(num_parameters=1)
    (lin4): Linear(in_features=64, out_features=64, bias=True)
    (prel4): PReLU(num_parameters=1)
    (lin5): Linear(in_features=64, out_features=64, bias=True)
    (prel5): PReLU(num_parameters=1)
    (lin6): Linear(in_features=64, out_features=64, bias=True)
    (prel6): PReLU(num_parameters=1)
    (lin7): Linear(in_features=64, out_features=64, bias=True)
    (prel7): PReLU(num_parameters=1)
    (lin8): Linear(in_features=64, out_features=64, bias=True)
    (prel8): PReLU(num_parameters=1)
    (lin9): Linear(in_features=64, out_features=1, bias=True)
    (sgm9): Sigmoid()
  )
)

hyperParameters:
---
optimizer: Adam
lossFunction: BCE
batchSize: 8
activationFunction: prel
epochNum: 50
learnRate: 0.001
layer: 10
nodes: 64
shape: lin
rescaleMethod: None
---